train/discriminator_1_11.pth (torch, 7459 bytes, 3 tensors)

main.0.weight f4 [1, 1, 4, 3]
2.9128743e-05 2.2455119e-05 2.9693232e-05 7.6783894e-05 0.00011797497 0.0001504661 7.398979e-05 5.595958e-05
4.3389948e-05 -0.016113035 0.056113556 -0.042582925
00000000: 8059 f437 005e bc37 bb15 f937 0a07 a138
00000010: 5469 f738 70c6 1d39 f72a 9b38 24b6 6a38
00000020: 9afd 3538 7cff 83bc 54d7 653d 6f6b 2ebd

main.3.weight f4 [1, 1, 4, 3]
0.00091329095 -0.0008737812 0.00012815377 -0.0048626014 -0.0013729896 -0.0008372495 -0.001153307 -0.00020050563
5.0381044e-05 -0.18909237 0.0014743225 0.0030147093
00000000: eb69 6f3a 770e 65ba 0461 0639 7556 9fbb
00000010: e3f5 b3ba dd7a 5bba 902a 97ba d23e 52b9
00000020: 3c50 5338 6ea1 41be 0e3e c13a 6e92 453b

main.6.weight f4 [1, 1, 16, 48]
-0.025120925 0.004096724 -0.0010847562 0.023870543 -0.0055857697 -0.0041690506 0.0031650304 0.0033377495
0.002289761 0.0045665796 0.012892689 0.012220361 0.0030761503 -0.004871817 0.019027434 -0.007493756
0.025953947 0.015924226 0.0019773087 0.02276779 -0.0013056406 0.0016140138 -0.00079733314 0.003807292
-0.0033302768 0.0035433995 0.020928608 0.013405694 0.00671061 0.003489532 0.01928944 -0.009456612
0.015394315 0.015929746 0.0050097387 0.024249695 -0.003777813 -0.0013559329 0.0062334784 -0.0050052945
-0.003892131 0.000327908 -0.003266624 0.012168216 -0.0074366513 0.0004796408 -0.010568324 0.01239835
-0.064716004 -0.0012438426 -0.0019342391 -0.0042695957 0.009888329 0.00019037814 0.0030027328 0.010510433
-0.0030188467 -4.1177147e-05 -0.0036847503 -0.0032586383 0.024752943 -0.004030407 0.007223143 0.0029244667
0.004099632 0.013184535 0.0016307026 0.001616938 0.01442627 0.001089895 -6.649901e-05 -0.002424052
0.0042449557 -0.0011344448 0.0017137236 0.001373857 0.012779173 0.026096918 0.008830047 0.008268592
7.5423413e-06 0.010041607 0.0011392788 0.0013746523 0.009988131 -0.001112831 0.014040981 0.009088714
-0.0020370914 -0.0024012802 -0.011395667 -0.0016018801 0.025821183 -0.0035429648 0.0015365385 -0.002590511
-0.06383178 0.0046160524 -0.0010944039 0.014894404 0.032334697 -0.0011619376 0.002792947 0.00065788574
-0.00042074744 -0.0015908043 0.01475815 0.0015923643 -0.0005395018 0.008294724 0.004813873 0.006949306
-0.00025526673 -0.00048142424 0.0035223747 -0.00018876334 0.0114927655 0.0155954575 0.0018490448 0.0021478962
-0.0003424875 -0.0047727046 -0.00074069446 -0.009366171 0.012246201 0.00037196267 0.0126402695 0.008425166
-0.0010150212 0.00081900466 0.009181977 0.023046745 0.0073195617 -0.0023858943 0.0012950774 -0.0018557935
0.0018264457 -0.0060658115 0.0020058113 -0.00347437 0.0043496867 0.009941317 -0.0016161295 0.006688258
-0.06058673 -0.00068999804 -0.003996538 -0.0045416723 0.00034193695 0.03495116 0.009590844 0.0013434698
-0.015280929 0.00030881586 0.0105064595 0.014808433 -0.0071405945 0.017284947 0.0131092 0.0059169377
0.026815977 -0.002911888 0.016853198 -1.679395e-05 -0.0019631565 0.024080874 0.013715655 -0.011271566
-0.012960355 0.0163844 0.008460002 0.015618897 -0.0066410797 0.009633075 0.010724113 0.0064740833
0.021425154 0.009924918 -0.0013099988 0.005088159 -0.0040833666 0.05091594 0.01324356 -0.0017731452
-0.018521527 -0.005494854 0.0033777333 0.011167894 0.0073601743 0.00036603442 -0.0030850363 0.0076016625
-0.06476252 0.010103422 0.001290868 0.022484453 0.0014404885 -0.0038478728 -0.0018543844 -0.0016838547
0.0020523854 0.005184909 0.01449013 0.011393197 0.002299524 -0.0019636971 0.018312758 -0.007939859
0.016475363 0.017271537 0.007975112 0.0190356 0.005105656 0.0010209216 -0.0021920481 0.0016026953
-0.0014975341 0.00022185105 0.021073222 0.010538004 0.0045899046 0.0033036529 0.017616278 -0.009174365
0.0059736827 0.017207472 0.0100371605 0.018599082 0.0002486365 0.0010482796 0.0011360674 0.001358723
-0.002559885 0.0012862905 0.00124627 0.014620466 0.0011494413 -5.998701e-05 -0.0071930205 0.0066599064
-0.07049191 -0.00066903443 -0.0036126347 -0.0055623236 0.006079901 -0.0021877876 0.003057586 0.01044494
-0.0030544808 0.0033264703 -0.004506423 -0.0019060719 0.023967242 -0.0024215966 0.0078393975 0.0006485724
00000000: 66ca cdbc d03d 863b 612e 8eba 288c c33c
00000010: d508 b7bb 889c 88bb 666c 4f3b 25be 5a3b
00000020: d10f 163b 3fa3 953b db3b 533c e937 483c
00000030: 3d99 493b c3a3 9fbb 6cdf 9b3c 2e8e f5bb
00000040: 5f9d d43c 8673 823c bc95 013b 8483 ba3c
00000050: 0722 abba 518d d33a 1f04 51ba c383 793b
00000060: c640 5abb 6138 683b 7972 ab3c 8ea3 5b3c
00000070: ade4 db3b a2b0 643b e304 9e3c e8ef 1abc
00000080: 7038 7c3c 197f 823c bc28 a43b 4ca7 c63c
00000090: 2f95 77bb 8fb9 b1ba 3542 cc3b 7403 a4bb
000000a0: 1f13 7fbb 11eb ab39 db14 56bb 325d 473c
000000b0: 27af f3bb 4c78 fb39 c326 2dbc 7322 4b3c
000000c0: d389 84bd 6f08 a3ba 4b86 fdba f7e7 8bbb
000000d0: a802 223c 3ea0 4739 7fc9 443b f433 2c3c
000000e0: d8d7 45bb a0b5 2cb8 da7b 71bb e18e 55bb
000000f0: afc6 ca3c 8111 84bb 1db0 ec3b 69a8 3f3b
00000100: 3556 863b f303 583c 4dbd d53a 70ef d33a
00000110: 295c 6c3c cfda 8e3a 6275 8bb8 d8dc 1ebb
00000120: 4519 8b3b a7b1 94ba 069f e03a fe12 b43a
00000130: bd5f 513c 34c9 d53c e7ab 103c fd78 073c
00000140: 3814 fd36 8d85 243c da53 953a ad2d b43a
00000150: 42a5 233c 6adc 91ba 250c 663c d4e8 143c
00000160: b980 05bb cc5e 1dbb e4b4 3abc 2df6 d1ba
00000170: f286 d33c 1631 68bb ad65 c93a 90c5 29bb
00000180: 3cba 82bd 4142 973b 1a72 8fba a907 743c
00000190: 6371 043d 284c 98ba e009 373b f775 2c3a
000001a0: c497 dcb9 8982 d0ba 2bcc 713c e1b6 d03a
000001b0: 5a6d 0dba 98e6 073c b2bd 9d3b 01b7 e33b
000001c0: 52d5 85b9 ab67 fcb9 a4d7 663b c6ee 45b9
000001d0: 274c 3c3c 1784 7f3c a65b f23a b8c3 0c3b
000001e0: e58f b3b9 5964 9cbb 2a2b 42ba 9274 19bc
000001f0: 4aa4 483c fc03 c339 2219 4f3c b509 0a3c
00000200: 760a 85ba 79b2 563a 0170 163c 87cc bc3c
00000210: efd8 ef3b aa5c 1cbb 96bf a93a 193e f3ba
00000220: 5965 ef3a b7c3 c6bb ee73 033b 42b2 63bb
00000230: d187 8e3b e8e0 223c 4fd4 d3ba 2d29 db3b
00000240: ca29 78bd fce0 34ba 64f5 82bb 4fd2 94bb
00000250: 0046 b339 f328 0f3d ea22 1d3c 5e17 b03a
00000260: dd5c 7abc 90e8 a139 4923 2c3c 129f 723c
00000270: a6fb e9bb 2999 8d3c f8c7 563c dfe2 c13b
00000280: 2ead db3c 60d5 3ebb b80f 8a3c bce0 8cb7
00000290: 4da8 00bb 4145 c53c a0b7 603c 60ac 38bc
000002a0: ab57 54bc 9438 863c d29b 0a3c 67e6 7f3c
000002b0: 6a9d d9bb 0cd4 1d3c 31b4 2f3c 8c24 d43b
000002c0: ce83 af3c 209c 223c 44b4 abba 92ba a63b
000002d0: c3cd 85bb 3c8d 503d 84fb 583c e168 e8ba
000002e0: 75ba 97bc 2d0e b4bb f65c 5d3b 8bf9 363c
000002f0: 9e2d f13b 4fe8 bf39 522e 4abb 5e17 f93b
00000300: 36a2 84bd d388 253c 5832 a93a 5131 b83c
00000310: c6ce bc3a 982c 7cbb d10e f3ba cab4 dcba
00000320: 5081 063b 2be6 a93b 0368 6d3c 88aa 3a3c
00000330: 9cb3 163b 5fb1 00bb a304 963c 2f16 02bc
00000340: 57f7 863c 0a7d 8d3c 0baa 023c 8cf0 9b3c
00000350: 594d a73b 72d0 853a 77a8 0fbb 8811 d23a
00000360: e848 c4ba b0a0 6839 c0a1 ac3c 98a7 2c3c
00000370: e966 963b 1982 583b 0350 903c 1350 16bc
00000380: e2be c33b aff6 8c3c e772 243c 1a5d 983c
00000390: 6d5b 8239 6d66 893a 19e8 943a 2e17 b23a
000003a0: bec3 27bb bf98 a83a e259 a33a ae8a 6f3c
000003b0: daa8 963a 909a 7bb8 6eb3 ebbb 583b da3b
000003c0: 105e 90bd 2462 2fba f4c1 6cbb 2744 b6bb
000003d0: e839 c73b fc60 0fbb c861 483b 4121 2b3c
000003e0: af2d 48bb e900 5a3b 9eaa 93bb 29d5 f9ba
000003f0: f356 c43c a6b3 1ebb d170 003c f504 2a3a
