train/discriminator_1_68.pth (torch, 7459 bytes, 3 tensors)

main.0.weight f4 [1, 1, 4, 3]
-1.7495902e-05 8.317058e-05 -8.193102e-06 9.364113e-05 -7.25222e-05 -4.2282034e-05 -6.4381056e-05 5.3063577e-05
-2.5803469e-05 -0.032332487 0.056274407 -0.033201143
00000000: 2ac4 92b7 dd6b ae38 1b75 09b7 3361 c438
00000010: 0f17 98b8 fd57 31b8 5104 87b8 9590 5e38
00000020: 8774 d8b7 126f 04bd fe7f 663d ecfd 07bd

main.3.weight f4 [1, 1, 4, 3]
-0.0011386097 0.00015865285 -0.0021105648 -0.0033236027 0.0026521382 0.00040424595 0.0030397864 -0.00031839366
0.0004178712 -0.25667363 -0.0035644788 -0.0013055094
00000000: 673d 95ba 0d5c 2639 6751 0abb cdd0 59bb
00000010: 7fcf 2d3b f9f0 d339 2737 473b 13ee a6b9
00000020: b915 db39 ba6a 83be 089a 69bb a01d abba

main.6.weight f4 [1, 1, 16, 48]
-0.03337634 0.0074727903 -0.005112545 -0.002622542 6.74064e-05 0.02634107 0.008065226 0.022343937
0.022239713 0.02044351 -0.0045828326 -0.006712243 0.0003990745 0.0054319124 0.015860828 0.0042435853
-0.0048501226 -0.0017427144 0.00488488 -0.0022569972 0.037078958 0.020293422 0.028455354 0.023528896
0.0070403335 0.015346166 -0.0014350098 -0.0030401973 0.010500276 0.006456239 0.017411955 0.015492454
0.0007215059 -0.0012605685 0.0054025454 0.025159383 0.007845663 0.031071743 -0.015171903 0.0251078
-0.0025119213 0.00937493 0.014168342 -0.0127952555 -0.00046540305 0.03518779 -0.0022445456 -0.01755872
-0.08077959 0.0003651778 -0.008159514 0.0009057046 0.005652913 0.006535397 0.014860576 0.0023031472
-0.004291773 0.0077259443 0.03559522 0.013430053 -0.0052636866 0.003469846 0.018324163 0.021386964
0.0050208154 0.0036186748 -0.0003383252 0.012003279 0.0069145183 -0.0017601395 0.0007534308 0.002826002
-0.007668364 0.0011259746 0.049341477 0.031764805 0.0054754633 0.0008783577 0.020942325 0.015709493
-0.00021481627 0.003466427 -0.0030047041 -0.011531724 0.00837773 0.009613876 0.00655159 0.002647777
-0.0011785956 -0.00436541 0.0022547164 -0.029864611 -0.0027884953 -0.011241929 0.015209466 -0.024742665
-0.10074887 0.026665026 0.00038081745 0.025323767 0.012458815 0.029394934 0.047385655 0.045040227
0.0003046861 0.0008337262 0.025129352 -0.0037279644 0.008579132 -0.0078123943 -0.007182022 -0.011406818
-0.009403631 0.004072675 -0.0055330046 0.009208653 0.021806091 0.0016223706 0.051877074 0.0036596293
-8.5025924e-05 0.00023257418 0.031008754 -0.0049413363 -0.0040469533 -0.00845328 -0.0035961026 -0.018812316
-0.013390189 0.008256337 -0.004239541 0.025476802 0.021301368 -0.0013943376 0.060352508 0.0025131956
0.0004219419 0.03232182 0.018065242 0.004890421 -0.0050643045 -0.017058525 0.0053702462 -0.018943567
-0.083095826 -0.0028840203 0.00577792 -0.0005611069 -0.0048910445 0.013205144 -0.0040535373 0.00037235432
0.016357059 0.014901762 0.023928786 0.0017098831 -0.0073879315 0.0074914345 0.033249665 0.016036116
0.046953175 0.0111159505 -0.006341323 0.00022924237 -0.0014302853 0.0127457185 -0.0022260738 -0.00079163787
0.01977529 -0.0016716751 0.03548643 0.008546374 0.0011608222 0.0011956304 0.034114968 0.006768216
0.03430274 0.009005668 -0.009277203 0.004857001 0.019270755 -0.018722398 0.00088419346 0.02490674
0.007957001 0.0005592443 -0.009323544 -0.0026628142 -0.0062670615 0.026782537 0.021590747 -0.018807866
-0.10801377 0.005393429 -0.010623301 0.0018105659 0.0015986995 0.028378967 0.011025866 0.01982706
0.026841898 0.025000196 -0.0021284244 -0.008611415 -0.0011444112 0.002167549 0.014575318 0.00699465
0.002243813 -0.0032546415 0.0008417502 0.0031700283 0.04484835 0.029889693 0.0272158 0.02328244
0.009320954 0.019695692 -0.0009677215 -0.0037383884 0.00630358 -0.004061987 0.012509849 0.016295543
-0.003878312 -0.0029273767 0.0091857845 0.020762324 0.00837121 0.026922964 -0.01521517 0.02319502
-0.0053597013 0.004479016 0.022396903 -0.012175244 0.0019545401 0.032374978 0.0006806715 -0.005771111
-0.088396 -0.0018794594 -0.009039627 0.0014885445 -0.00084102724 0.002522494 0.017416522 0.000320212
-0.0042630257 0.015608581 0.03812069 0.01747436 -0.0039840494 0.00598282 0.019560678 0.016437782
00000000: a1b5 08bd 4fde f43b 2387 a7bb f4de 2bbb
00000010: 895c 8d38 3ac9 d73c 0224 043c a20a b73c
00000020: 0f30 b63c 2679 a73c 962b 96bb 60f2 dbbb
00000030: df3a d139 2ffe b13b 91ee 813c c60d 8b3b
00000040: c7ed 9ebb cb6b e4ba 5811 a03b 21ea 13bb
00000050: 1be0 173d 643e a63c 341b e93c acbf c03c
00000060: 99b2 e63b 7c6e 7b3c f016 bcba 0c3e 47bb
00000070: 5a09 2c3c dc8e d33b 84a3 8e3c 10d4 7d3c
00000080: 7123 3d3a a939 a5ba d607 b13b 0d1b ce3c
00000090: 198b 003c 2b8a fe3c 9393 78bc dfae cd3c
000000a0: 0c9f 24bb 4e99 193c 5522 683c 31a3 51bc
000000b0: 5701 f4b9 1221 103d 3a19 13bb 4ed7 8fbc
000000c0: c56f a5bd 5675 bf39 7baf 05bc cf6c 6d3a
000000d0: 123c b93b e226 d63b c679 733c 66f0 163b
000000e0: 00a2 8cbb eb29 fd3b 4bcc 113d ba09 5c3c
000000f0: 017b acbb 5b66 633b 8e1c 963c b733 af3c
00000100: a785 a43b 4a27 6d3b 3d61 b1b9 67a9 443c
00000110: 2f93 e23b 7bb4 e6ba e381 453a 7234 393b
00000120: e646 fbbb 7095 933a 4a1a 4a3d d01b 023d
00000130: 846b b33b 9641 663a 3d8f ab3c 32b1 803c
00000140: 4e40 61b9 ff2c 633b 92ea 44bb 8eef 3cbc
00000150: bf42 093c 8583 1d3c b8ae d63b 5486 2d3b
00000160: 1b7b 9aba b70b 8fbb ddc3 133b a1a6 f4bc
00000170: 30bf 36bb 1130 38bc 2031 793c 21b1 cabc
00000180: 6c55 cebd 9d70 da3c 74a8 c739 ca73 cf3c
00000190: 0f20 4c3c a5cd f03c 7617 423d 1a7c 383d
000001a0: 47be 9f39 6b8e 5a3a 12dc cd3c dd50 74bb
000001b0: 7d8f 0c3c 1dff ffbb 2b57 ebbb aae3 3abc
000001c0: b011 1abc 1374 853b 354e b5bb e4df 163c
000001d0: b0a2 b23c b9a5 d43a 0e7d 543d 64d6 6f3b
000001e0: f24f b2b8 28df 7339 1206 fe3c efea a1bb
000001f0: 4e9c 84bb a07f 0abc 97ac 6bbb 491c 9abc
00000200: 8662 5bbc 9645 073c d9eb 8abb bab4 d03c
00000210: 3580 ae3c 35c2 b6ba 3134 773d 6db4 243b
00000220: 1538 dd39 e263 043d 8ffd 933c d33f a03b
00000230: 77f2 a5bb 52be 8bbc e4f8 af3b 8a2f 9bbc
00000240: 252e aabd d501 3dbb b554 bd3b 3f17 13ba
00000250: 0e45 a0bb 635a 583c 89d3 84bb 8d38 c339
00000260: 3dff 853c 8526 743c 4d06 c43c 281e e03a
00000270: 7616 f2bb b57a f53b cd30 083d 2c5e 833c
00000280: f951 403d ad1f 363c dfca cfbb c860 7039
00000290: 6978 bbba 6bd3 503c 52e3 11bb eb85 4fba
000002a0: caff a13c 1c1c dbba 385a 113d 1706 0c3c
000002b0: bb26 983a b3b6 9c3a 23bc 0b3d e9c7 dd3b
000002c0: 0881 0c3d 828c 133c 69ff 17bc 7a27 9f3b
000002d0: b4dd 9d3c b75f 99bc 38c9 673a 3809 cc3c
000002e0: 155e 023c 409a 123a c7c1 18bc 9c82 2ebb
000002f0: ec5b cdbb 0d67 db3c 14df b03c f412 9abc
00000300: 5336 ddbd 5dbb b03b 5b0d 2ebc 8350 ed3a
00000310: 748b d13a 027b e83c d5a5 343c 5c6c a23c
00000320: 8ae3 db3c 36cd cc3c 097d 0bbb e416 0dbc
00000330: 1100 96ba 700d 0e3b 51cd 6e3c 6033 e53b
00000340: ef0c 133b d34b 55bb e6a8 5c3a 40c0 4f3b
00000350: e7b2 373d 3bdb f43c abf3 de3c d1ba be3c
00000360: eab6 183c dc58 a13c b1ae 7dba c0ff 74bb
00000370: 438e ce3b 6b1a 85bb 1cf6 4c3c 3b7e 853c
00000380: 472b 7ebb 3bd9 3fbb f97f 163c c015 aa3c
00000390: 6627 093c 8c8d dc3c 0c49 79bc 7c03 be3c
000003a0: 6fa0 afbb b6c4 923b b679 b73c ad7a 47bc
000003b0: be17 003b a09b 043d 176f 323a 971b bdbb
000003c0: f608 b5bd 3158 f6ba f21a 14bc 441b c33a
000003d0: 6278 5cba 6d50 253b 18ad 8e3c 21e2 a739
000003e0: dab0 8bbb 22bb 7f3c 7124 1c3d 6426 8f3c
000003f0: a18c 82bb 880b c43b b73d a03c 87a8 863c
