train/discriminator_epoch0.pth (torch, 7602 bytes, 3 tensors)

main.0.weight f4 [1, 1, 4, 3]
000000 47 c3 51 bc 71 47 1d bc 34 c2 3c bc ef 47 63 bb
       -0.012802905 -0.0095995525 -0.011520911 -0.0034680327
000010 98 9a c8 3b 37 33 01 3c 6c 4c 68 bc db 5a 0c bc
       0.0061219446 0.007885746 -0.014178377 -0.0085665835
000020 79 09 12 bc 73 3a 6f bd e0 e8 dc bc 4e f9 c3 bc
       -0.008913391 -0.05840535 -0.026966512 -0.023922589

main.3.weight f4 [1, 1, 4, 3]
000000 d5 1f bb 3c 80 d6 e2 3c 3a 09 11 3c f1 75 97 bc
       0.022842327 0.027690172 0.008852297 -0.018488856
000010 d3 4a e3 bb 06 8f c7 bc 30 4d 4b 3c de ad 15 3c
       -0.00693641 -0.024360191 0.01240854 0.009135691
000020 57 50 68 bc e9 73 af bc 25 5d b3 bc 20 c3 10 bc
       -0.014179311 -0.021417575 -0.021895 -0.008835584

main.6.weight f4 [1, 1, 16, 48]
000000 d1 7f 40 bc fe 73 32 3c 8f be a1 bc cb 8f 39 bc
       -0.011749224 0.0108919125 -0.019744186 -0.011325787
000010 13 14 e5 3b 91 f1 bc bc 88 eb 3d 3c a6 67 28 3c
       0.0069909184 -0.023064407 0.0115918 0.010278618
000020 a7 42 ca 3c 40 9e af 3b 52 e1 00 bd e2 26 c7 bb
       0.024689985 0.005359441 -0.031464882 -0.0060776332
000030 d6 6e 87 bb 3e 95 c5 bc a1 53 64 3b 52 3b 80 3b
       -0.0041330857 -0.024119016 0.0034839886 0.0039133215
000040 6d d4 a0 3c 0f 6a 6a 3c cf 37 1a bc 70 f4 df 3b
       0.019632543 0.014307513 -0.00941272 0.006834559
000050 1e 34 dd 3c 13 0a 17 bc 2e ae e0 3b 14 d4 9c bb
       0.02700239 -0.0092187105 0.0068567013 -0.004786024
000060 c0 bd 97 3c c0 90 d4 3c dc 8f 8d 3c 88 96 95 bc
       0.018523097 0.025947928 0.017280512 -0.018260255
000070 7a 59 b6 ba c7 85 26 bc 0b 23 34 3b 73 87 ee 3b
       -0.0013912164 -0.010163731 0.0027486708 0.0072793304
000080 80 78 2b 3d b3 6d 48 3c 83 9f e7 3c a6 10 cc b9
       0.041862965 0.012233186 0.028274303 -0.00038922316
000090 e1 91 8f bc 02 db 2b 3b 64 ed 99 bb fe ef c0 ba
       -0.017525615 0.0026223068 -0.0046974886 -0.0014719961
0000a0 c5 00 11 3d 9e fe 30 3d 38 cd 65 bb c5 a9 78 3a
       0.035401125 0.043211572 -0.0035064947 0.0009485747
0000b0 90 27 47 bb 87 93 c9 bb 14 41 8c 3c 5b 86 f3 3c
       -0.0030388571 -0.00615162 0.017120875 0.029727152
0000c0 8f 7b 74 bc 36 68 e6 3b 73 f5 cf bb 41 e8 85 bc
       -0.014922037 0.007031466 -0.0063463985 -0.016346099
0000d0 71 89 9a bc 32 a0 4f 3c 94 54 5b bc a2 40 98 bc
       -0.018864365 0.012672471 -0.013386864 -0.018585507
0000e0 c8 cc 8a 3c b6 30 0f 3c 2f ee d6 3c 83 65 a6 bb
       0.01694335 0.008739641 0.026236622 -0.005078019
0000f0 4f 9e da 3b f9 5f 68 bb f3 d1 17 bb 4e 90 c5 3b
       0.006671704 -0.0035457595 -0.002316591 0.0060291653
000100 c5 4f ef bb 76 16 ae bb cc 10 8d ba b0 2f 07 3c
       -0.0073032104 -0.005312736 -0.0010762452 0.008251116
000110 75 4c 94 ba b4 6b 07 3c 40 4a fa ba a2 d2 08 bc
       -0.001131429 0.0082654245 -0.0019095615 -0.008351
000120 e0 fd 9a 3b 9c cf 89 3c 84 47 93 bc e8 91 e4 3b
       0.0047299713 0.016822629 -0.017978437 0.006975401
000130 c6 f5 0a bc ef d3 f7 3b db 2f 2b bc 88 b0 5d bc
       -0.0084814485 0.0075631063 -0.010448421 -0.013530858
000140 12 c9 45 bb 7e 9d 08 3b dd cf bd bb a3 67 16 3b
       -0.0030179662 0.0020845826 -0.0057926015 0.0022949956
000150 65 bb a0 3c 25 ae 57 bc 92 bc c6 3b 49 2b 23 3a
       0.019620607 -0.013164078 0.00606496 0.00062244065
000160 14 0b 6c b9 0e 19 d2 bc b4 7a cd bb d1 51 0e 3b
       -0.00022510841 -0.025646713 -0.006270731 0.0021716247
000170 ea d4 bd 3b c6 71 66 bb 50 a4 ac 38 a6 33 a2 bc
       0.0057932036 -0.003516303 8.232205e-05 -0.019800019
000180 58 d5 dc 3c 8f 86 62 3a dc ea a7 bb ea 7e 0e bc
       0.026957199 0.00086412666 -0.005124433 -0.008697251
000190 64 8c c7 3b d6 1e da ba b8 f6 a4 bb 14 18 14 bc
       0.006089734 -0.001664127 -0.005034294 -0.009038944
0001a0 cf cf 68 38 a9 1a 04 3c 9f fc 9c bc 96 56 88 3c
       5.5506647e-05 0.008062997 -0.019163428 0.01664285
0001b0 1f 8b 9f ba 82 ad 9b bb 27 c3 d8 3b dc 84 18 ba
       -0.0012172199 -0.0047509084 0.006615061 -0.00058181374
0001c0 c9 26 dc ba 3f 40 b5 3a bd b4 97 3b f4 db 07 3b
       -0.0016796227 0.0013828351 0.0046297 0.0020730468
0001d0 7f cb 14 bc 19 51 79 bb d8 e3 33 3c 90 99 a6 3b
       -0.00908172 -0.0038042723 0.010979615 0.005084224
0001e0 f1 15 0f 3a 8e f4 38 b8 e6 90 e9 3b f9 87 15 bb
       0.00054582866 -4.4096778e-05 0.007127869 -0.0022816642
0001f0 a6 f8 3d 3b e7 0b 26 3c 9b 24 93 3c 3f d9 dc 3a
       0.0028987317 0.010134674 0.01796179 0.0016849412
000200 6c 3c 46 3c 4a 50 da 3b 1b 48 64 bc d4 b8 98 bb
       0.012099367 0.0066624032 -0.013933207 -0.004660705
000210 e0 2c b8 3b 9a 76 b1 ba eb 6f 88 3a 12 f7 bf 3b
       0.005620584 -0.0013539374 0.0010409331 0.0058583105
000220 25 b5 62 3a 5b cf 72 3b e6 b0 03 3b 64 0b f2 ba
       0.00086482085 0.0037049863 0.0020094453 -0.001846653
000230 bf 9e 9a bb 55 94 38 3c 03 af 32 3d 25 47 0f 3c
       -0.004718631 0.011265834 0.043623935 0.0087449895
000240 1c 85 d3 bb 10 d1 ca ba c3 a6 26 3c ae 70 9a ba
       -0.006455077 -0.0015473682 0.010171595 -0.0011782849
000250 c9 88 87 bc 83 33 5b 3b 06 12 f7 bc ba a7 30 3d
       -0.016544716 0.0033447451 -0.030159961 0.043128707
000260 61 87 3e 3a 99 9c 36 bb 86 76 0e 3b 96 2a 64 3b
       0.0007268098 -0.0027864336 0.0021738126 0.0034815422
000270 0c 78 cc bb 3c 46 36 3c 61 98 43 ba dc 6f 16 3b
       -0.0062398966 0.011125144 -0.0007461366 0.0022954857
000280 f9 87 e6 3c 0e 5c 3f bc 8a b0 82 3c 95 85 33 ba
       0.028141009 -0.011679662 0.015953321 -0.00068482134
000290 61 18 a7 bb 8b 1f 6d 3b e7 a0 d8 bb 19 ab 52 3c
       -0.0050993417 0.003618213 -0.006610978 0.012858176
0002a0 67 e8 d3 bc ba ec ad 3c 0f 5a c3 3a 78 e7 83 3c
       -0.025867654 0.021231044 0.0014904159 0.016101584
0002b0 72 5c 60 bc 77 7f b3 bb 96 c4 c3 3b 89 92 03 bc
       -0.013693916 -0.0054778415 0.0059743626 -0.008030542
0002c0 d4 b6 20 bb 17 e5 49 3c 7c 55 ae 3c 0c ba 7d bc
       -0.0024523037 0.012322686 0.021280997 -0.015486252
0002d0 79 d5 93 3c 69 32 0d bc d1 99 fe bb 12 7f 09 bb
       0.018046128 -0.008617976 -0.007769801 -0.002098028
0002e0 12 a3 8d 3b a7 60 ef 3b ef 3d 28 bb ae 54 6e 3c
       0.004322418 0.007305223 -0.002567168 0.014546556
0002f0 c7 19 20 bc e4 c1 1d 3b 24 8b 16 bb 87 c7 a8 3a
       -0.009771771 0.0024071867 -0.0022971118 0.0012876847
000300 76 e9 87 3b 50 11 e1 bb b4 b9 4e bc ae 88 84 b9
       0.0041477038 -0.006868519 -0.012617517 -0.00025278836
000310 e2 88 17 3d 59 d1 ce bb 20 d8 a4 3c 96 93 e9 3a
       0.036995776 -0.0063115773 0.020122588 0.0017820473
000320 e8 c7 eb ba 36 05 6d bc cd 01 65 bc 76 5e 3a bc
       -0.0017988654 -0.014466574 -0.01397748 -0.01137506
000330 f6 6c 81 bb 6e 7c 2a 3b de d2 dc 3c 3f 51 10 3b
       -0.0039497567 0.0026014107 0.026956018 0.0022021083
000340 f8 33 90 3c 1a c7 1c bc d6 b9 20 3c 74 52 f9 bb
       0.017602906 -0.009568954 0.009809932 -0.007608706
000350 5f 0d ea 3c 94 71 0a 3b 01 2b 6e 3c fc 3f 55 3b
       0.028570829 0.0021124827 0.01453662 0.0032539358
000360 c0 95 82 bc 02 76 d6 3c 65 4d 43 bb f9 20 85 3c
       -0.015940547 0.026179317 -0.002980077 0.016251074
000370 3d f2 ae 3c 4a 42 c8 bc 99 b9 c5 bc e6 52 35 bc
       0.021355743 -0.024445672 -0.024136351 -0.011067128
000380 83 8d 77 ba e2 a1 77 3b f0 e2 d2 3a a6 9a 5a 3a
       -0.0009443389 0.0037785699 0.0016089361 0.00083390845
000390 ad d1 9b bb 6e 43 17 bb 01 a9 cc 3b 19 28 92 b9
       -0.00475522 -0.0023080963 0.006245733 -0.00027877165
0003a0 da e3 e6 bb 16 5f 11 3c 22 42 3b 39 9b 24 03 3c
       -0.007046205 0.008872768 0.00017858346 0.008004333
0003b0 c6 8f b7 3b 5f 7d 09 3c d7 f7 43 bb 6d ab 8c bc
       0.005601856 0.008391707 -0.0029902363 -0.017171586
0003c0 08 56 bb 3b f7 3e 5a bb 5d ef 97 3b 28 2d 90 3c
       0.005717043 -0.003330169 0.0046366886 0.017599657
0003d0 ca 35 0a bb 21 b5 1e ba 8b 05 94 bc da ca 33 bb
       -0.002108919 -0.0006054212 -0.01806905 -0.0027434141
0003e0 e2 91 20 bc c1 04 9b 3b 17 ad 49 3c c9 5b 75 bc
       -0.009800406 0.0047307913 0.012309334 -0.014975497
0003f0 73 16 96 bb 37 37 00 bd 47 8e 8e 3c 0d d7 56 3a
       -0.004580313 -0.031302657 0.017401827 0.0008195497
