train/discriminator_epoch.pth (torch, 7602 bytes, 3 tensors)

main.0.weight f4 [1, 1, 4, 3]
00000000: 5d2c 2eb9 bbe3 2f39 d462 34b9 ca70 dfb8
00000010: f66f b1b6 da1f f8b9 c482 cdb8 625c 3039
00000020: ec28 81b9 3718 66bd 7f0b 173d 040f 413b
-0.0001661046 0.00016774137 -0.00017202954 -0.00010654477 -5.288045e-06 -0.00047325977 -9.799519e-05 0.00016819083
-0.00024635287 -0.056175437 0.036876198 0.0029458413

main.3.weight f4 [1, 1, 4, 3]
00000000: d622 943b 6cbd f23a b6d3 9539 aa9a 643a
00000010: d19d 8d39 4ef4 343a a093 5c39 f663 b039
00000020: afcc 363b aa69 b0bd 8d86 1e3c 68c0 1c3a
0.0045207543 0.0018519587 0.00028577232 0.00087205565 0.00027011198 0.00069028593 0.0002103583 0.00033643813
0.0027892997 -0.08613904 0.009675634 0.00059795985

main.6.weight f4 [1, 1, 16, 48]
00000000: a813 813c 454d b63a 3c23 cabb e3e1 24bc
00000010: 4e65 2dbb 77cf 2bbb b354 0f3a 9a68 f3bc
00000020: 4a4b 3ebc 0c56 94b9 9e4a 943a b845 c9ba
00000030: 8081 cc39 3023 57b9 a53d 933a b203 f839
00000040: 99d8 c13a 39da 01bb e928 4139 20c6 30bb
00000050: 6860 d9bb 5645 ca39 c01a d03a 0105 dcbc
00000060: a2f2 4ebb 1f6b f737 8081 043b 9b6c b938
00000070: b143 663a c842 4d3a 4b66 a3ba 62db ffb8
00000080: 8d8e 2b39 c20a 5bbb 1c93 23ba 5499 4dbc
00000090: 6af1 19bc 0f57 53ba 8121 13bc 8a9e 2ebd
000000a0: 3107 41bc 1249 97ba d80e aa3a 5f1f 7f3a
000000b0: 6534 873b 85c7 0fba 7137 1f3a 9921 1f39
000000c0: 26ad e63b 4bc5 84ba 7e79 92bb 7154 91bd
000000d0: 8e51 eebc 1a14 a7bc 1d53 31bc e055 8abb
000000e0: 3876 1ebc c09e ffba 2125 2abc 8be1 61bb
000000f0: bced 68ba f3fe 80ba 64a2 1bbc bc90 38b9
00000100: 7b48 07bb c63a 48bc 18db 9abb a4de 01bb
00000110: 5ff6 dcbc 1d45 87bc be92 1fbc 3882 53bb
00000120: 8782 19bc a7f8 ebba 0a95 2dbc 7ffe 6dbb
00000130: 8236 61ba dfa7 81bb 90ec c4bb caab c3b9
00000140: ea25 86ba 4d44 1bbc 8016 bebb f17f bdba
00000150: 4e4e e6bc 4b1d 91bc acb8 21bc 74c6 dbbb
00000160: 7993 33bc 5b51 b5ba 70c1 84bb 00f7 05bb
00000170: 80d4 5aba aebc 34ba f6b5 5cbb 5d4d 9bba
00000180: de8a 99bb 7f79 6bbb f5e8 853b 8c0d 88bb
00000190: 4cbd b0ba 7c37 5039 e2b5 3a3a 4849 e1b9
000001a0: 0ecc 0a3b 779e 10bb a688 5fba 9508 67ba
000001b0: 6821 47bb 4f1c 593b dde5 25bb 6102 6eba
000001c0: 5cf7 14bb 954a 9a3a 2dc2 63ba 7e4d ebba
000001d0: 6931 b1ba c686 40ba 5e8d 00ba b88b e13a
000001e0: bdae 9d3a df74 cd3a a5d1 cbb9 3acd 1eb9
000001f0: 370d 47bb 7608 713b 3c84 d9b9 e801 f3ba
00000200: d3c1 4cbb 7fd3 7eba ed0d f23a 0347 b6ba
00000210: 3532 32ba be03 36ba 3288 29bb 182f f9ba
00000220: 348d 993a f2cd 55ba ebf9 3f3b 7088 a9ba
00000230: fc04 33ba 5b7d a93a 23fc dbba ca8d 1aba
00000240: 7df9 3f3c 572d 97bb 4f31 b3ba 8e40 8cbd
00000250: b8b4 d3bc 9d2c ecbb cec8 053b caa2 253a
00000260: 39af 3bbc 99e7 23b9 0b81 c3bb 2fee 55bb
00000270: 6b1f b4ba d46d 9a3a 896c 92bb 9b24 4cbb
00000280: 3e37 08bc 8892 02bc 7756 96ba 33be 82bb
00000290: eced c5bc ee7e 2ebb a938 f53a c6ff a339
000002a0: e673 0abc 8adf 28bb 2ca7 87bb 06a2 62bb
000002b0: 4c99 1f3a 1e24 b7ba 7083 813b e380 94ba
000002c0: 2c58 fbbb fc60 15bc 2509 ac39 a9a0 8c3a
000002d0: 6a74 d3bc 0bb7 5938 616f 78bb 9c62 1abb
000002e0: 3fba 4dbc 9cc3 70bb 18d8 2639 3d13 07bb
000002f0: 5022 d539 34ba 4539 bf39 98ba d9d9 25bb
00000300: 3ffe 813b 30b2 f8ba 6115 b2bb fb44 86bb
00000310: d703 10bb ec13 8dbb eff4 5dbb 2800 f9bc
00000320: 64fa 55bc 8f84 eeba f840 08bb c6aa fcba
00000330: 8d58 cd39 eb31 263a 447d e4ba 54f8 0db9
00000340: f4fb 893a 91be 01bb 46ea cb39 c9b6 82ba
00000350: 7d76 fbbb fa2a 15ba 12b5 1cbb 683c c3bc
00000360: 2106 9dbb aea5 4838 6f18 b63a dbab 0fbb
00000370: b99b 413a ed5d 4c3a 331c cfba f2d6 02b9
00000380: 3465 7f3a aa3e 69bb 4b16 cfba 56ab 14bc
00000390: 7242 b5bb bec1 91ba 1953 2cbb 0091 12bd
000003a0: 1f7c 42bc d37d a63a bd05 14ba 5e8c 05bb
000003b0: 4b65 42b8 2dae 9b3a 4d93 383a 02c4 04bb
000003c0: 9e9f 143c a9f1 11bb 1105 e1ba 82ff 7abd
000003d0: c827 d6bc c5c2 b1bc 366e 3abc 3331 91bb
000003e0: 7936 3abc f824 2bbb 6299 42bc 085c 87bb
000003f0: 93ea bdb9 1c54 07bb a498 12bc a2f9 b039
0.015756443 0.0013908526 -0.006168751 -0.010063621 -0.0026458087 -0.0026216188 0.0005467638 -0.029712964
-0.01161463 -0.0002829287 0.0011313742 -0.0015355861 0.00039006397 -0.00020517106 0.0011233581 0.00047305
0.0014789283 -0.0019813909 0.00018421155 -0.002697356 -0.006633807 0.00038580102 0.0015877113 -0.026857855
-0.0031577726 2.9494577e-05 0.002021879 8.841717e-05 0.00087838905 0.00078300806 -0.0012466399 -0.00012200211
0.00016360935 -0.003342316 -0.00062398775 -0.012548763 -0.0093959365 -0.0008061984 -0.008980156 -0.042631663
-0.0117815 -0.0011542162 0.0012974394 0.00097321527 0.004126119 -0.0005484748 0.000607363 0.00015175938
0.007039684 -0.0010129599 -0.0044700494 -0.07096184 -0.029091623 -0.020395327 -0.010823038 -0.004221663
-0.00967174 -0.0019502267 -0.010384829 -0.003446671 -0.0008885523 -0.0009841606 -0.009499166 -0.00017601525
-0.0020642567 -0.012221044 -0.004725825 -0.0019816542 -0.026972948 -0.016512448 -0.009739576 -0.0032273661
-0.009369499 -0.0018003181 -0.010594616 -0.0036315022 -0.0008591191 -0.0039567794 -0.0060096458 -0.0003732129
-0.0010234688 -0.009476733 -0.005801022 -0.0014457685 -0.02811351 -0.017714163 -0.009870689 -0.006707007
-0.010960453 -0.001383345 -0.00405138 -0.0020441413 -0.0008347705 -0.00068945705 -0.0033677793 -0.0011848618
-0.0046857437 -0.0035930572 0.0040866085 -0.0041520055 -0.0013484149 0.00019857095 0.00071224396 -0.00042969943
0.0021178755 -0.0022067109 -0.0008527137 -0.00088132295 -0.0030384902 0.0033128446 -0.002531401 -0.0009079334
-0.0022730445 0.0011771495 -0.0008688297 -0.0017952172 -0.0013518754 -0.00073443016 -0.0004903878 0.0017207777
0.0012030225 0.0015675089 -0.00038875375 -0.00015144507 -0.0030372867 0.0036778725 -0.00041487988 -0.0018539997
-0.0031243458 -0.00097208464 0.0018467285 -0.0013906661 -0.00067976426 -0.00069433067 -0.0025868532 -0.0019011227
0.0011715055 -0.00081559934 0.002929325 -0.0012934338 -0.0006829051 0.0012931036 -0.0016783517 -0.0005895762
0.0117171975 -0.004613559 -0.0013671311 -0.0684825 -0.02584301 -0.0072074668 0.0020413878 0.0006318508
-0.011455351 -0.00015631168 -0.005966311 -0.003264319 -0.0013742273 0.0011781999 -0.004468505 -0.0031149748
-0.008313952 -0.007969506 -0.001146986 -0.0039899587 -0.024161302 -0.002662595 0.0018708903 0.0003128035
-0.008450484 -0.0025768005 -0.0041398015 -0.0034581437 0.00060882117 -0.0013972556 0.003952436 -0.0011329915
-0.007670423 -0.009117361 0.0003281321 0.0010729033 -0.025812346 5.1907304e-05 -0.0037908184 -0.002355731
-0.012556612 -0.0036737686 0.00015911495 -0.0020610832 0.0004065209 0.0001885675 -0.0011613889 -0.002530685
0.003967076 -0.0018974002 -0.0054346775 -0.0040975786 -0.0021974945 -0.0043053534 -0.0033867916 -0.030395582
-0.013060186 -0.0018197465 -0.0020790678 -0.0019276969 0.00039166622 0.0006339836 -0.0017432352 -0.00013539317
0.0010527358 -0.0019797424 0.00038893725 -0.0009972687 -0.007674037 -0.0005690303 -0.0023911637 -0.023832515
-0.0047919904 4.7838017e-05 0.001389278 -0.0021922502 0.000738557 0.00077959785 -0.0015801251 -0.0001247784
0.00097425585 -0.003559033 -0.001579949 -0.009074053 -0.0055316025 -0.0011120362 -0.0026294647 -0.035782814
-0.011870413 0.0012702293 -0.0005646607 -0.0020377855 -4.634754e-05 0.001187747 0.00070409925 -0.0020258431
0.009071259 -0.0022269285 -0.0017167648 -0.061278827 -0.026142016 -0.021699319 -0.011378815 -0.004430914
-0.011365526 -0.0026114564 -0.01187739 -0.004130844 -0.0003622366 -0.0020649498 -0.008947525 0.00033755327
