train/discriminator_45.pth (torch, 7429 bytes, 3 tensors)

main.0.weight f4 [1, 1, 4, 3]
000000 43 33 54 b9 fb 32 73 39 c8 44 a9 b6 19 9b 2b 39
       -0.00020236992 0.00023193278 -5.0445997e-06 0.00016365609
000010 7e 73 72 39 0c e8 15 39 89 0a 7e b9 0a 87 35 38
       0.00023121943 0.00014296192 -0.00024227252 4.3279528e-05
000020 cd 15 3e 39 30 71 07 bd ad 7e 70 3d 93 6c 0d bc
       0.00018127933 -0.03306693 0.058714557 -0.008631843

main.3.weight f4 [1, 1, 4, 3]
000000 b3 66 a7 b8 8f 56 38 b9 8c 70 86 3a a0 9a 52 bb
       -7.98231e-05 -0.00017579853 0.001025693 -0.003213562
000010 15 30 3e ba 92 47 ac 3b ae 69 e0 ba 00 67 98 39
       -0.00072550896 0.0052575553 -0.0017121339 0.0002906844
000020 49 97 1a bb 81 75 02 be 27 27 75 bb 42 ce 2a b7
       -0.0023588708 -0.12740137 -0.003740737 -1.0180813e-05

main.6.weight f4 [1, 1, 16, 48]
000000 c0 fc b0 ba 8c 79 98 3a 68 62 f1 b9 cb 8d 86 3b
       -0.001350306 0.0011632903 -0.0004604042 0.0041062585
000010 dc fb 36 3b 68 96 3a 3c 05 5f 72 bb 35 67 cc ba
       0.0027921116 0.011388399 -0.0036982906 -0.0015594723
000020 02 64 5b 3a 02 0c 18 3c 2b ae e8 ba 02 6a 9e 3c
       0.00083690893 0.009280207 -0.0017752101 0.019337658
000030 ea 20 19 3b c1 44 8b 3b d0 49 f3 b9 31 00 85 38
       0.0023365566 0.0042501395 -0.00046403566 6.34197e-05
000040 69 dc 06 3b e8 fa 7d 3a 70 7c fd 3a 1c c5 6b 39
       0.0020578152 0.0009688572 0.0019339453 0.00022484775
000050 42 4b f3 ba 32 fb 08 3c 66 4b ac bb 80 08 d3 ba
       -0.0018561857 0.008360671 -0.0052580116 -0.0016100556
000060 2d 5e bd ba db 68 fa 3b e0 bd f5 3a bd cc bb 3c
       -0.0014447622 0.0076418943 0.0018748604 0.022924775
000070 f3 e5 8b 3b 32 14 63 3b b4 b4 38 39 1c ca 1b ba
       0.0042693554 0.0034649489 0.00017614925 -0.00059428974
000080 d8 e8 c5 39 d8 4a 34 3a 7d 2a 66 3b c0 f9 da b9
       0.0003774825 0.00068776077 0.003512054 -0.00041766278
000090 cd b5 b7 3b 2a 7c 5b 3c ce 23 73 ba 73 b8 6a 3b
       0.005606389 0.013396302 -0.00092750497 0.0035815507
0000a0 01 35 bd b9 b6 63 ad 3b 3a 9c 90 39 8f 3b ad 3c
       -0.0003608838 0.0052914275 0.00027582218 0.021146564
0000b0 ea 31 e9 ba cd 5b a3 ba 06 9f 77 ba 26 62 29 bb
       -0.0017791365 -0.0012463272 -0.00094459986 -0.0025845855
0000c0 59 82 1c bd bb 5d 1c 3d ee ed 5c ba ab fd 02 3c
       -0.038210247 0.038175326 -0.0008427788 0.0079950495
0000d0 d4 b0 b3 3c 8c bb 91 3c e4 5a 4e 3a 04 93 0c 3c
       0.021934904 0.017789625 0.000787182 0.008579973
0000e0 99 e8 96 3b 42 93 a8 3c 56 ba ac 39 0d f6 53 3a
       0.0046053645 0.02057803 0.00032945228 0.00080856757
0000f0 f1 f1 a9 b8 20 eb e5 3a 53 3b 79 3a 2f 5f f2 3a
       -8.103613e-05 0.0017541386 0.0009507436 0.0018491502
000100 33 59 85 3b 2a 3d 48 3b 38 b7 27 3b 63 93 35 3b
       0.0040694713 0.0030554035 0.0025591385 0.0027706258
000110 c8 03 44 3c 3d 38 84 3c 7d f4 3d ba fd 65 2d 3c
       0.011963792 0.016140098 -0.00072462094 0.010583398
000120 09 68 88 3b 2d 95 b0 3c e6 47 1b 3b f5 c9 99 3a
       0.0041627926 0.021555508 0.0023693978 0.0011733162
000130 dd 8a 7b ba 0c 3d 1d 3a 90 61 df 3b 1f b1 3b 3a
       -0.00095955824 0.00059981714 0.0068170503 0.0007159877
000140 6e f7 4b 3b 79 ad c6 3b 05 ac 8c bb 8a ca 4a 3b
       0.0031122821 0.00606316 -0.0042929673 0.0030943477
000150 a7 8f 90 3c 70 95 99 3c 65 6d 11 3b de 4b 54 3c
       0.017646624 0.018748015 0.0022190448 0.012957541
000160 9b 39 aa 3a bb 57 6f 3c b8 e6 f9 39 38 6e cd 3a
       0.0012987138 0.014608319 0.0004766488 0.0015673107
000170 0f 64 a2 ba 2e 96 b8 3a 33 b5 66 bb 9d 45 48 3c
       -0.0012389439 0.0014082843 -0.0035203218 0.012223628
000180 cb 58 17 bd 7f 24 27 bc 3b 73 84 bb 12 ee 9f 3c
       -0.036949914 -0.010201572 -0.004042057 0.0195227
000190 04 42 d6 3a c1 10 4c 3a 58 47 f1 3c 0e e0 fc 39
       0.0016346578 0.0007784479 0.029452965 0.0004823212
0001a0 8a 4f 66 ba f9 da 26 3c a4 01 16 bb 81 38 f1 39
       -0.0008785656 0.010184043 -0.0022889161 0.000460092
0001b0 cd 46 73 3b c8 a6 af 3a b8 1f d7 3a f3 9b 79 3b
       0.0037121058 0.0013401145 0.0016412651 0.0038087338
0001c0 7d 82 b0 3b a3 49 ca 3a 95 2d f4 bb 7c 7b 4b 3c
       0.005386649 0.0015433322 -0.007451723 0.012419578
0001d0 4b e5 b1 bb 4f f2 20 39 b2 2f 9f 3c 22 8f ff 3a
       -0.005428945 0.00015349056 0.019431923 0.0019497613
0001e0 e7 11 52 bb af 3f 2a 3c 49 a9 f7 ba 88 24 9a 3a
       -0.0032054128 0.01039116 -0.0018895055 0.0011760155
0001f0 9f 91 48 3b 34 b1 26 ba 9a 7e 16 3b 7a 47 91 3b
       0.0030604375 -0.0006358803 0.0022963644 0.0044335695
000200 87 bc 88 3b 6b 6e 5a 3a 17 66 95 3a 23 dd 42 3c
       0.004172865 0.00083324936 0.0011398223 0.011893543
000210 60 f1 0f bb 10 82 4c 3b e4 bd bf 3c 71 40 44 3a
       -0.002196394 0.0031205453 0.023405977 0.0007486409
000220 67 54 18 ba fa be cc ba 23 b6 b6 ba 1e af 9c 3b
       -0.0005810917 -0.001562088 -0.0013939779 0.004781618
000230 91 53 e0 39 76 6e 36 3b 97 08 da bb 3a a0 f5 3b
       0.0004278687 0.0027836836 -0.006653856 0.007495907
000240 8d 61 c9 bc d3 3e 15 bc c3 fd ba 3a 06 71 37 3b
       -0.024582649 -0.009109217 0.0014266301 0.0027990951
000250 41 2a 89 3c 3c 1a 49 3c e6 47 79 3b 70 8d 2f 3b
       0.016743781 0.012274321 0.003803724 0.0026787184
000260 15 1e cd 3a 71 a6 5d bb 6a 98 e7 b9 3d fc d7 3c
       0.0015649224 -0.003382113 -0.0004417331 0.026365394
000270 48 dc db 3b 38 38 7a 3b 50 1a 4a b7 85 11 b2 b9
       0.006709609 0.0038180482 -1.2046265e-05 -0.0003396386
000280 dd 30 eb 3a 60 c3 d5 37 a9 96 3c 3b e9 34 d0 b9
       0.001794364 2.5482557e-05 0.0028776324 -0.00039712273
000290 4e ff 70 3c fd 14 01 3d 09 2d 35 bb 9a b4 3d 3a
       0.014709307 0.031514157 -0.0027645251 0.00072366896
0002a0 ab 5f df 39 5a 50 87 bb d5 65 da 3b ab 33 24 3d
       0.00042605153 -0.0041294517 0.0066649714 0.040088337
0002b0 6e df 0a 3c 6f ca 9c 3a 6e 95 86 3a 4c 53 dc b9
       0.008476121 0.0011962185 0.0010267922 -0.0004202373
0002c0 e9 33 2c ba 92 bd 9b 3a 94 9a 27 3b d4 78 55 3b
       -0.00065690145 0.0011882058 0.0025574313 0.003257324
0002d0 f4 18 87 3c 86 22 fd 3c 91 48 eb bb 60 c3 41 bb
       0.01649139 0.030900251 -0.0071802814 -0.0029565915
0002e0 9d b7 22 bb 55 18 4b 3c e7 0c 5c 3b a2 7a e8 3c
       -0.002482868 0.012395938 0.0033577026 0.028378788
0002f0 75 28 97 3b 2f 15 72 ba 61 0e 0d 3a a2 c6 17 3a
       0.004612977 -0.0009234724 0.0005380866 0.00057897915
000300 4b 57 1b bd 89 3e c0 3a 19 36 08 bb 46 9e 66 3b
       -0.037925046 0.0014667074 -0.0020784198 0.0035189553
000310 29 e8 d5 3b b0 1a 42 3c f4 40 7f bb 1d bb 78 ba
       0.00652792 0.011847183 -0.0038948627 -0.0009488331
000320 d7 a9 96 3b 68 58 12 3c e5 22 31 b8 50 6b 96 3c
       0.004597883 0.0089322105 -4.2232587e-05 0.018361717
000330 27 b9 46 3a c4 c4 86 3b 87 dc 03 39 e5 b5 8a b9
       0.00075806904 0.0041128118 0.00012575286 -0.00026456933
000340 0a 89 65 3b 7d d7 a0 3a 21 e1 a1 3a 5f a6 85 3a
       0.0035024309 0.0012271252 0.0012350419 0.0010196677
000350 10 12 3c 3b ba 85 2f 3c 6b a6 1f bb 89 32 a7 ba
       0.002869729 0.010713035 -0.0024360667 -0.001275615
000360 8f ff ed 39 bb 5c 11 3c 63 1b 0f 3a 87 59 b9 3c
       0.0004539457 0.008872206 0.0005459098 0.022625698
000370 12 01 bb 3a 3f bb 91 3b 79 5c a5 3a 03 ac 8a 39
       0.0014267287 0.0044473703 0.001261606 0.0002644957
000380 3c 88 1b 3a 9f 7e e3 39 f4 28 0b b8 0f 0e a3 ba
       0.0005933081 0.00043391154 -3.3178323e-05 -0.0012440103
000390 28 42 0a 3b de 48 22 3c 9d 78 4c bb 23 77 09 3b
       0.002109656 0.009905068 -0.003119982 0.0020975552
0003a0 d7 ff 3f ba ff 91 0c 3c c5 1d b1 b8 e4 9d a4 3c
       -0.0007324195 0.00857973 -8.445563e-05 0.02009482
0003b0 9e ba 39 bb 3e 90 81 bb 57 dc d1 ba b0 98 52 bb
       -0.0028339992 -0.0039539626 -0.0016011101 -0.0032134466
0003c0 b2 01 24 bd 90 98 12 3d 27 b9 3b bb c7 9d d9 3b
       -0.04004068 0.035790026 -0.0028644295 0.006641123
0003d0 e6 fe 95 3c cf 6d 8b 3c 6d e1 31 3a ef 96 f9 3b
       0.018310022 0.017020134 0.0006785605 0.0076168696
0003e0 9b b0 a7 3b 1e be aa 3c ec e5 35 b7 65 6b 86 3a
       0.0051174886 0.020842608 -1.0841974e-05 0.0010255395
0003f0 73 e1 79 b9 a2 bf 27 3a 6a 06 7a 38 49 2f 54 39
       -0.00023830477 0.00063991 5.961062e-05 0.0002023551
